…
            ],
            "num_heads": 4,
            "num_queries": 64,
            "img_radius_thresold": [
                128,
                64,
                32,
                16
            ],
            "pcd_radius_thresold": [
                null,
                16,
                8,
                4
            ]
        }
    }
}
2025-12-30 13:57:47 | INFO | Using Single-GPU mode.
2025-12-30 13:59:50 | INFO | Calibrate neighbors: [30 22 25 26].
2025-12-30 13:59:51 | INFO | Model description:
MATR2D3D(
  (img_backbone): ImageBackbone(
    (encoder1): ConvBlock(
      (conv): Conv2d(3, 128, kernel_size=(7, 7), stride=(2, 2), padding=(3, 3), padding_mode=reflect)
      (norm): GroupNorm(16, 128, eps=1e-05, affine=True)
      (act): LeakyReLU(negative_slope=0.2)
      (dropout): Identity()
    )
    (encoder2): Sequential(
      (0): BasicBlock(
        (conv1): ConvBlock(
          (conv): Conv2d(128, 128, kernel_size=(3, 3), stride=(1, 1), padding=(1, 1), padding_mode=reflect)
          (norm): GroupNorm(16, 128, eps=1e-05, affine=True)
          (act): LeakyReLU(negative_slope=0.2)
          (dropout): Identity()
        )
        (conv2): ConvBlock(
          (conv): Conv2d(128, 128, kernel_size=(3, 3), stride=(1, 1), padding=(1, 1), padding_mode=reflect)
          (norm): GroupNorm(16, 128, eps=1e-05, affine=True)
          (act): Identity()
          (dropout): Identity()
        )
        (identity): Identity()
        (act): LeakyReLU(negative_slope=0.2)
      )
      (1): BasicBlock(
        (conv1): ConvBlock(
          (conv): Conv2d(128, 128, kernel_size=(3, 3), stride=(1, 1), padding=(1, 1), padding_mode=reflect)
          (norm): GroupNorm(16, 128, eps=1e-05, affine=True)
          (act): LeakyReLU(negative_slope=0.2)
          (dropout): Identity()
        )
        (conv2): ConvBlock(
          (conv): Conv2d(128, 128, kernel_size=(3, 3), stride=(1, 1), padding=(1, 1), padding_mode=reflect)
          (norm): GroupNorm(16, 128, eps=1e-05, affine=True)
          (act): Identity()
          (dropout): Identity()
        )
        (identity): Identity()
        (act): LeakyReLU(negative_slope=0.2)
      )
    )
    (encoder3): Sequential(
      (0): BasicBlock(
        (conv1): ConvBlock(
          (conv): Conv2d(128, 256, kernel_size=(3, 3), stride=(2, 2), padding=(1, 1), padding_mode=reflect)
          (norm): GroupNorm(32, 256, eps=1e-05, affine=True)
          (act): LeakyReLU(negative_slope=0.2)
          (dropout): Identity()
        )
        (conv2): ConvBlock(
          (conv): Conv2d(256, 256, kernel_size=(3, 3), stride=(1, 1), padding=(1, 1), padding_mode=reflect)
          (norm): GroupNorm(32, 256, eps=1e-05, affine=True)
          (act): Identity()
          (dropout): Identity()
        )
        (identity): ConvBlock(
          (conv): Conv2d(128, 256, kernel_size=(3, 3), stride=(2, 2), padding=(1, 1), padding_mode=reflect)
          (norm): GroupNorm(32, 256, eps=1e-05, affine=True)
          (act): Identity()
          (dropout): Identity()
        )
        (act): LeakyReLU(negative_slope=0.2)
      )
      (1): BasicBlock(
        (conv1): ConvBlock(
          (conv): Conv2d(256, 256, kernel_size=(3, 3), stride=(1, 1), padding=(1, 1), padding_mode=reflect)
          (norm): GroupNorm(32, 256, eps=1e-05, affine=True)
          (act): LeakyReLU(negative_slope=0.2)
          (dropout): Identity()
        )
        (conv2): ConvBlock(
          (conv): Conv2d(256, 256, kernel_size=(3, 3), stride=(1, 1), padding=(1, 1), padding_mode=reflect)
          (norm): GroupNorm(32, 256, eps=1e-05, affine=True)
          (act): Identity()
          (dropout): Identity()
        )
        (identity): Identity()
        (act): LeakyReLU(negative_slope=0.2)
      )
    )
    (encoder4): Sequential(
      (0): BasicBlock(
        (conv1): ConvBlock(
          (conv): Conv2d(256, 512, kernel_size=(3, 3), stride=(2, 2), padding=(1, 1), padding_mode=reflect)
          (norm): GroupNorm(32, 512, eps=1e-05, affine=True)
          (act): LeakyReLU(negative_slope=0.2)
          (dropout): Identity()
        )
        (conv2): ConvBlock(
          (conv): Conv2d(512, 512, kernel_size=(3, 3), stride=(1, 1), padding=(1, 1), padding_mode=reflect)
          (norm): GroupNorm(32, 512, eps=1e-05, affine=True)
          (act): Identity()
          (dropout): Identity()
        )
        (identity): ConvBlock(
          (conv): Conv2d(256, 512, kernel_size=(3, 3), stride=(2, 2), padding=(1, 1), padding_mode=reflect)
          (norm): GroupNorm(32, 512, eps=1e-05, affine=True)
          (act): Identity()
          (dropout): Identity()
        )
        (act): LeakyReLU(negative_slope=0.2)
      )
      (1): BasicBlock(
        (conv1): ConvBlock(
          (conv): Conv2d(512, 512, kernel_size=(3, 3), stride=(1, 1), padding=(1, 1), padding_mode=reflect)
          (norm): GroupNorm(32, 512, eps=1e-05, affine=True)
          (act): LeakyReLU(negative_slope=0.2)
          (dropout): Identity()
        )
        (conv2): ConvBlock(
          (conv): Conv2d(512, 512, kernel_size=(3, 3), stride=(1, 1), padding=(1, 1), padding_mode=reflect)
          (norm): GroupNorm(32, 512, eps=1e-05, affine=True)
          (act): Identity()
          (dropout): Identity()
        )
        (identity): Identity()
        (act): LeakyReLU(negative_slope=0.2)
      )
    )
    (decoder4_1): ConvBlock(
      (conv): Conv2d(512, 512, kernel_size=(1, 1), stride=(1, 1), padding_mode=reflect)
      (norm): Identity()
      (act): Identity()
      (dropout): Identity()
    )
    (decoder3_1): ConvBlock(
      (conv): Conv2d(256, 512, kernel_size=(1, 1), stride=(1, 1), padding_mode=reflect)
      (norm): Identity()
      (act): Identity()
      (dropout): Identity()
    )
    (decoder3_2): Sequential(
      (0): ConvBlock(
        (conv): Conv2d(512, 512, kernel_size=(3, 3), stride=(1, 1), padding=(1, 1), padding_mode=reflect)
        (norm): GroupNorm(32, 512, eps=1e-05, affine=True)
        (act): LeakyReLU(negative_slope=0.2)
        (dropout): Identity()
      )
      (1): ConvBlock(
        (conv): Conv2d(512, 256, kernel_size=(3, 3), stride=(1, 1), padding=(1, 1), padding_mode=reflect)
        (norm): Identity()
        (act): Identity()
        (dropout): Identity()
      )
    )
    (decoder2_1): ConvBlock(
      (conv): Conv2d(128, 256, kernel_size=(1, 1), stride=(1, 1), padding_mode=reflect)
      (norm): Identity()
      (act): Identity()
      (dropout): Identity()
    )
    (decoder2_2): Sequential(
      (0): ConvBlock(
        (conv): Conv2d(256, 256, kernel_size=(3, 3), stride=(1, 1), padding=(1, 1), padding_mode=reflect)
        (norm): GroupNorm(32, 256, eps=1e-05, affine=True)
        (act): LeakyReLU(negative_slope=0.2)
        (dropout): Identity()
      )
      (1): ConvBlock(
        (conv): Conv2d(256, 128, kernel_size=(3, 3), stride=(1, 1), padding=(1, 1), padding_mode=reflect)
        (norm): Identity()
        (act): Identity()
        (dropout): Identity()
      )
    )
    (decoder1_1): ConvBlock(
      (conv): Conv2d(128, 128, kernel_size=(1, 1), stride=(1, 1), padding_mode=reflect)
      (norm): Identity()
      (act): Identity()
      (dropout): Identity()
    )
    (decoder1_2): Sequential(
      (0): ConvBlock(
        (conv): Conv2d(128, 128, kernel_size=(3, 3), stride=(1, 1), padding=(1, 1), padding_mode=reflect)
        (norm): GroupNorm(16, 128, eps=1e-05, affine=True)
        (act): LeakyReLU(negative_slope=0.2)
        (dropout): Identity()
      )
      (1): ConvBlock(
        (conv): Conv2d(128, 128, kernel_size=(3, 3), stride=(1, 1), padding=(1, 1), padding_mode=reflect)
        (norm): Identity()
        (act): Identity()
        (dropout): Identity()
      )
    )
    (out_proj): ConvBlock(
      (conv): Conv2d(128, 128, kernel_size=(1, 1), stride=(1, 1), padding_mode=reflect)
      (norm): Identity()
      (act): Identity()
      (dropout): Identity()
    )
  )
  (pcd_backbone): PointBackbone(
    (encoder1_1): KPConvBlock(
      (conv): KPConv(kernel_size=15, in_channels=1, out_channels=64, radius=0.375, sigma=0.3, bias=True)
      (norm): GroupNormPackMode(8, 64, eps=1e-05, affine=True)
      (act): LeakyReLU(negative_slope=0.2)
    )
    (encoder1_2): KPResidualBlock(
      (unary1): UnaryBlockPackMode(
        (mlp): Linear(in_features=64, out_features=32, bias=True)
        (norm): GroupNormPackMode(4, 32, eps=1e-05, affine=True)
        (act): LeakyReLU(negative_slope=0.2)
      )
      (conv): KPConvBlock(
        (conv): KPConv(kernel_size=15, in_channels=32, out_channels=32, radius=0.375, sigma=0.3, bias=True)
        (norm): GroupNormPackMode(4, 32, eps=1e-05, affine=True)
        (act): LeakyReLU(negative_slope=0.2)
      )
      (unary2): UnaryBlockPackMode(
        (mlp): Linear(in_features=32, out_features=128, bias=True)
        (norm): GroupNormPackMode(16, 128, eps=1e-05, affine=True)
        (act): Identity()
      )
      (unary_shortcut): UnaryBlockPackMode(
        (mlp): Linear(in_features=64, out_features=128, bias=True)
        (norm): GroupNormPackMode(16, 128, eps=1e-05, affine=True)
        (act): Identity()
      )
      (act): LeakyReLU(negative_slope=0.2)
    )
    (encoder2_1): KPResidualBlock(
      (unary1): UnaryBlockPackMode(
        (mlp): Linear(in_features=128, out_features=32, bias=True)
        (norm): GroupNormPackMode(4, 32, eps=1e-05, affine=True)
        (act): LeakyReLU(negative_slope=0.2)
      )
      (conv): KPConvBlock(
        (conv): KPConv(kernel_size=15, in_channels=32, out_channels=32, radius=0.375, sigma=0.3, bias=True)
        (norm): GroupNormPackMode(4, 32, eps=1e-05, affine=True)
        (act): LeakyReLU(negative_slope=0.2)
      )
      (unary2): UnaryBlockPackMode(
        (mlp): Linear(in_features=32, out_features=128, bias=True)
        (norm): GroupNormPackMode(16, 128, eps=1e-05, affine=True)
        (act): Identity()
      )
      (unary_shortcut): Identity()
      (act): LeakyReLU(negative_slope=0.2)
    )
    (encoder2_2): KPResidualBlock(
      (unary1): UnaryBlockPackMode(
        (mlp): Linear(in_features=128, out_features=64, bias=True)
        (norm): GroupNormPackMode(8, 64, eps=1e-05, affine=True)
        (act): LeakyReLU(negative_slope=0.2)
      )
      (conv): KPConvBlock(
        (conv): KPConv(kernel_size=15, in_channels=64, out_channels=64, radius=0.75, sigma=0.6, bias=True)
        (norm): GroupNormPackMode(8, 64, eps=1e-05, affine=True)
        (act): LeakyReLU(negative_slope=0.2)
      )
      (unary2): UnaryBlockPackMode(
        (mlp): Linear(in_features=64, out_features=256, bias=True)
        (norm): GroupNormPackMode(32, 256, eps=1e-05, affine=True)
        (act): Identity()
      )
      (unary_shortcut): UnaryBlockPackMode(
        (mlp): Linear(in_features=128, out_features=256, bias=True)
        (norm): GroupNormPackMode(32, 256, eps=1e-05, affine=True)
        (act): Identity()
      )
      (act): LeakyReLU(negative_slope=0.2)
    )
    (encoder2_3): KPResidualBlock(
      (unary1): UnaryBlockPackMode(
        (mlp): Linear(in_features=256, out_features=64, bias=True)
        (norm): GroupNormPackMode(8, 64, eps=1e-05, affine=True)
        (act): LeakyReLU(negative_slope=0.2)
      )
      (conv): KPConvBlock(
        (conv): KPConv(kernel_size=15, in_channels=64, out_channels=64, radius=0.75, sigma=0.6, bias=True)
        (norm): GroupNormPackMode(8, 64, eps=1e-05, affine=True)
        (act): LeakyReLU(negative_slope=0.2)
      )
      (unary2): UnaryBlockPackMode(
        (mlp): Linear(in_features=64, out_features=256, bias=True)
        (norm): GroupNormPackMode(32, 256, eps=1e-05, affine=True)
        (act): Identity()
      )
      (unary_shortcut): Identity()
      (act): LeakyReLU(negative_slope=0.2)
    )
    (encoder3_1): KPResidualBlock(
      (unary1): UnaryBlockPackMode(
        (mlp): Linear(in_features=256, out_features=64, bias=True)
        (norm): GroupNormPackMode(8, 64, eps=1e-05, affine=True)
        (act): LeakyReLU(negative_slope=0.2)
      )
      (conv): KPConvBlock(
        (conv): KPConv(kernel_size=15, in_channels=64, out_channels=64, radius=0.75, sigma=0.6, bias=True)
        (norm): GroupNormPackMode(8, 64, eps=1e-05, affine=True)
        (act): LeakyReLU(negative_slope=0.2)
      )
      (unary2): UnaryBlockPackMode(
        (mlp): Linear(in_features=64, out_features=256, bias=True)
        (norm): GroupNormPackMode(32, 256, eps=1e-05, affine=True)
        (act): Identity()
      )
      (unary_shortcut): Identity()
      (act): LeakyReLU(negative_slope=0.2)
    )
    (encoder3_2): KPResidualBlock(
      (unary1): UnaryBlockPackMode(
        (mlp): Linear(in_features=256, out_features=128, bias=True)
        (norm): GroupNormPackMode(16, 128, eps=1e-05, affine=True)
        (act): LeakyReLU(negative_slope=0.2)
      )
      (conv): KPConvBlock(
        (conv): KPConv(kernel_size=15, in_channels=128, out_channels=128, radius=1.5, sigma=1.2, bias=True)
        (norm): GroupNormPackMode(16, 128, eps=1e-05, affine=True)
        (act): LeakyReLU(negative_slope=0.2)
      )
      (unary2): UnaryBlockPackMode(
        (mlp): Linear(in_features=128, out_features=512, bias=True)
        (norm): GroupNormPackMode(32, 512, eps=1e-05, affine=True)
        (act): Identity()
      )
      (unary_shortcut): UnaryBlockPackMode(
        (mlp): Linear(in_features=256, out_features=512, bias=True)
        (norm): GroupNormPackMode(32, 512, eps=1e-05, affine=True)
        (act): Identity()
      )
      (act): LeakyReLU(negative_slope=0.2)
    )
    (encoder3_3): KPResidualBlock(
      (unary1): UnaryBlockPackMode(
        (mlp): Linear(in_features=512, out_features=128, bias=True)
        (norm): GroupNormPackMode(16, 128, eps=1e-05, affine=True)
        (act): LeakyReLU(negative_slope=0.2)
      )
      (conv): KPConvBlock(
        (conv): KPConv(kernel_size=15, in_channels=128, out_channels=128, radius=1.5, sigma=1.2, bias=True)
        (norm): GroupNormPackMode(16, 128, eps=1e-05, affine=True)
        (act): LeakyReLU(negative_slope=0.2)
      )
      (unary2): UnaryBlockPackMode(
        (mlp): Linear(in_features=128, out_features=512, bias=True)
        (norm): GroupNormPackMode(32, 512, eps=1e-05, affine=True)
        (act): Identity()
      )
      (unary_shortcut): Identity()
      (act): LeakyReLU(negative_slope=0.2)
    )
    (encoder4_1): KPResidualBlock(
      (unary1): UnaryBlockPackMode(
        (mlp): Linear(in_features=512, out_features=128, bias=True)
        (norm): GroupNormPackMode(16, 128, eps=1e-05, affine=True)
        (act): LeakyReLU(negative_slope=0.2)
      )
      (conv): KPConvBlock(
        (conv): KPConv(kernel_size=15, in_channels=128, out_channels=128, radius=1.5, sigma=1.2, bias=True)
        (norm): GroupNormPackMode(16, 128, eps=1e-05, affine=True)
        (act): LeakyReLU(negative_slope=0.2)
      )
      (unary2): UnaryBlockPackMode(
        (mlp): Linear(in_features=128, out_features=512, bias=True)
        (norm): GroupNormPackMode(32, 512, eps=1e-05, affine=True)
        (act): Identity()
      )
      (unary_shortcut): Identity()
      (act): LeakyReLU(negative_slope=0.2)
    )
    (encoder4_2): KPResidualBlock(
      (unary1): UnaryBlockPackMode(
        (mlp): Linear(in_features=512, out_features=256, bias=True)
        (norm): GroupNormPackMode(32, 256, eps=1e-05, affine=True)
        (act): LeakyReLU(negative_slope=0.2)
      )
      (conv): KPConvBlock(
        (conv): KPConv(kernel_size=15, in_channels=256, out_channels=256, radius=3, sigma=2.4, bias=True)
        (norm): GroupNormPackMode(32, 256, eps=1e-05, affine=True)
        (act): LeakyReLU(negative_slope=0.2)
      )
      (unary2): UnaryBlockPackMode(
        (mlp): Linear(in_features=256, out_features=1024, bias=True)
        (norm): GroupNormPackMode(32, 1024, eps=1e-05, affine=True)
        (act): Identity()
      )
      (unary_shortcut): UnaryBlockPackMode(
        (mlp): Linear(in_features=512, out_features=1024, bias=True)
        (norm): GroupNormPackMode(32, 1024, eps=1e-05, affine=True)
        (act): Identity()
      )
      (act): LeakyReLU(negative_slope=0.2)
    )
    (encoder4_3): KPResidualBlock(
      (unary1): UnaryBlockPackMode(
        (mlp): Linear(in_features=1024, out_features=256, bias=True)
        (norm): GroupNormPackMode(32, 256, eps=1e-05, affine=True)
        (act): LeakyReLU(negative_slope=0.2)
      )
      (conv): KPConvBlock(
        (conv): KPConv(kernel_size=15, in_channels=256, out_channels=256, radius=3, sigma=2.4, bias=True)
        (norm): GroupNormPackMode(32, 256, eps=1e-05, affine=True)
        (act): LeakyReLU(negative_slope=0.2)
      )
      (unary2): UnaryBlockPackMode(
        (mlp): Linear(in_features=256, out_features=1024, bias=True)
        (norm): GroupNormPackMode(32, 1024, eps=1e-05, affine=True)
        (act): Identity()
      )
      (unary_shortcut): Identity()
      (act): LeakyReLU(negative_slope=0.2)
    )
    (decoder3): UnaryBlockPackMode(
      (mlp): Linear(in_features=1536, out_features=512, bias=True)
      (norm): GroupNormPackMode(32, 512, eps=1e-05, affine=True)
      (act): LeakyReLU(negative_slope=0.2)
    )
    (decoder2): UnaryBlockPackMode(
      (mlp): Linear(in_features=768, out_features=256, bias=True)
      (norm): GroupNormPackMode(32, 256, eps=1e-05, affine=True)
      (act): LeakyReLU(negative_slope=0.2)
    )
    (decoder1): UnaryBlockPackMode(
      (mlp): Linear(in_features=384, out_features=128, bias=True)
      (norm): GroupNormPackMode(16, 128, eps=1e-05, affine=True)
      (act): LeakyReLU(negative_slope=0.2)
    )
    (out_proj): Linear(in_features=128, out_features=128, bias=True)
  )
  (img_overlap): ImageOverlap(
    (encoder1): ConvBlock(
      (conv): Conv2d(3, 128, kernel_size=(7, 7), stride=(2, 2), padding=(3, 3), padding_mode=reflect)
      (norm): GroupNorm(16, 128, eps=1e-05, affine=True)
      (act): LeakyReLU(negative_slope=0.2)
      (dropout): Identity()
    )
    (encoder2): Sequential(
      (0): BasicBlock(
        (conv1): ConvBlock(
          (conv): Conv2d(128, 128, kernel_size=(3, 3), stride=(1, 1), padding=(1, 1), padding_mode=reflect)
          (norm): GroupNorm(16, 128, eps=1e-05, affine=True)
          (act): LeakyReLU(negative_slope=0.2)
          (dropout): Identity()
        )
        (conv2): ConvBlock(
          (conv): Conv2d(128, 128, kernel_size=(3, 3), stride=(1, 1), padding=(1, 1), padding_mode=reflect)
          (norm): GroupNorm(16, 128, eps=1e-05, affine=True)
          (act): Identity()
          (dropout): Identity()
        )
        (identity): Identity()
        (act): LeakyReLU(negative_slope=0.2)
      )
      (1): BasicBlock(
        (conv1): ConvBlock(
          (conv): Conv2d(128, 128, kernel_size=(3, 3), stride=(1, 1), padding=(1, 1), padding_mode=reflect)
          (norm): GroupNorm(16, 128, eps=1e-05, affine=True)
          (act): LeakyReLU(negative_slope=0.2)
          (dropout): Identity()
        )
        (conv2): ConvBlock(
          (conv): Conv2d(128, 128, kernel_size=(3, 3), stride=(1, 1), padding=(1, 1), padding_mode=reflect)
          (norm): GroupNorm(16, 128, eps=1e-05, affine=True)
          (act): Identity()
          (dropout): Identity()
        )
        (identity): Identity()
        (act): LeakyReLU(negative_slope=0.2)
      )
    )
    (encoder3): Sequential(
      (0): BasicBlock(
        (conv1): ConvBlock(
          (conv): Conv2d(128, 256, kernel_size=(3, 3), stride=(2, 2), padding=(1, 1), padding_mode=reflect)
          (norm): GroupNorm(32, 256, eps=1e-05, affine=True)
          (act): LeakyReLU(negative_slope=0.2)
          (dropout): Identity()
        )
        (conv2): ConvBlock(
          (conv): Conv2d(256, 256, kernel_size=(3, 3), stride=(1, 1), padding=(1, 1), padding_mode=reflect)
          (norm): GroupNorm(32, 256, eps=1e-05, affine=True)
          (act): Identity()
          (dropout): Identity()
        )
        (identity): ConvBlock(
          (conv): Conv2d(128, 256, kernel_size=(3, 3), stride=(2, 2), padding=(1, 1), padding_mode=reflect)
          (norm): GroupNorm(32, 256, eps=1e-05, affine=True)
          (act): Identity()
          (dropout): Identity()
        )
        (act): LeakyReLU(negative_slope=0.2)
      )
      (1): BasicBlock(
        (conv1): ConvBlock(
          (conv): Conv2d(256, 256, kernel_size=(3, 3), stride=(1, 1), padding=(1, 1), padding_mode=reflect)
          (norm): GroupNorm(32, 256, eps=1e-05, affine=True)
          (act): LeakyReLU(negative_slope=0.2)
          (dropout): Identity()
        )
        (conv2): ConvBlock(
          (conv): Conv2d(256, 256, kernel_size=(3, 3), stride=(1, 1), padding=(1, 1), padding_mode=reflect)
          (norm): GroupNorm(32, 256, eps=1e-05, affine=True)
          (act): Identity()
          (dropout): Identity()
        )
        (identity): Identity()
        (act): LeakyReLU(negative_slope=0.2)
      )
    )
    (encoder4): Sequential(
      (0): BasicBlock(
        (conv1): ConvBlock(
          (conv): Conv2d(256, 512, kernel_size=(3, 3), stride=(2, 2), padding=(1, 1), padding_mode=reflect)
          (norm): GroupNorm(32, 512, eps=1e-05, affine=True)
          (act): LeakyReLU(negative_slope=0.2)
          (dropout): Identity()
        )
        (conv2): ConvBlock(
          (conv): Conv2d(512, 512, kernel_size=(3, 3), stride=(1, 1), padding=(1, 1), padding_mode=reflect)
          (norm): GroupNorm(32, 512, eps=1e-05, affine=True)
          (act): Identity()
          (dropout): Identity()
        )
        (identity): ConvBlock(
          (conv): Conv2d(256, 512, kernel_size=(3, 3), stride=(2, 2), padding=(1, 1), padding_mode=reflect)
          (norm): GroupNorm(32, 512, eps=1e-05, affine=True)
          (act): Identity()
          (dropout): Identity()
        )
        (act): LeakyReLU(negative_slope=0.2)
      )
      (1): BasicBlock(
        (conv1): ConvBlock(
          (conv): Conv2d(512, 512, kernel_size=(3, 3), stride=(1, 1), padding=(1, 1), padding_mode=reflect)
          (norm): GroupNorm(32, 512, eps=1e-05, affine=True)
          (act): LeakyReLU(negative_slope=0.2)
          (dropout): Identity()
        )
        (conv2): ConvBlock(
          (conv): Conv2d(512, 512, kernel_size=(3, 3), stride=(1, 1), padding=(1, 1), padding_mode=reflect)
          (norm): GroupNorm(32, 512, eps=1e-05, affine=True)
          (act): Identity()
          (dropout): Identity()
        )
        (identity): Identity()
        (act): LeakyReLU(negative_slope=0.2)
      )
    )
    (decoder4_1): ConvBlock(
      (conv): Conv2d(512, 512, kernel_size=(1, 1), stride=(1, 1), padding_mode=reflect)
      (norm): Identity()
      (act): Identity()
      (dropout): Identity()
    )
  )
  (pcd_overlap): PointOverlap(
    (encoder1_1): KPConvBlock(
      (conv): KPConv(kernel_size=15, in_channels=1, out_channels=64, radius=0.375, sigma=0.3, bias=True)
      (norm): GroupNormPackMode(8, 64, eps=1e-05, affine=True)
      (act): LeakyReLU(negative_slope=0.2)
    )
    (encoder1_2): KPResidualBlock(
      (unary1): UnaryBlockPackMode(
        (mlp): Linear(in_features=64, out_features=32, bias=True)
        (norm): GroupNormPackMode(4, 32, eps=1e-05, affine=True)
        (act): LeakyReLU(negative_slope=0.2)
      )
      (conv): KPConvBlock(
        (conv): KPConv(kernel_size=15, in_channels=32, out_channels=32, radius=0.375, sigma=0.3, bias=True)
        (norm): GroupNormPackMode(4, 32, eps=1e-05, affine=True)
        (act): LeakyReLU(negative_slope=0.2)
      )
      (unary2): UnaryBlockPackMode(
        (mlp): Linear(in_features=32, out_features=128, bias=True)
        (norm): GroupNormPackMode(16, 128, eps=1e-05, affine=True)
        (act): Identity()
      )
      (unary_shortcut): UnaryBlockPackMode(
        (mlp): Linear(in_features=64, out_features=128, bias=True)
        (norm): GroupNormPackMode(16, 128, eps=1e-05, affine=True)
        (act): Identity()
      )
      (act): LeakyReLU(negative_slope=0.2)
    )
    (encoder2_1): KPResidualBlock(
      (unary1): UnaryBlockPackMode(
        (mlp): Linear(in_features=128, out_features=32, bias=True)
        (norm): GroupNormPackMode(4, 32, eps=1e-05, affine=True)
        (act): LeakyReLU(negative_slope=0.2)
      )
      (conv): KPConvBlock(
        (conv): KPConv(kernel_size=15, in_channels=32, out_channels=32, radius=0.375, sigma=0.3, bias=True)
        (norm): GroupNormPackMode(4, 32, eps=1e-05, affine=True)
        (act): LeakyReLU(negative_slope=0.2)
      )
      (unary2): UnaryBlockPackMode(
        (mlp): Linear(in_features=32, out_features=128, bias=True)
        (norm): GroupNormPackMode(16, 128, eps=1e-05, affine=True)
        (act): Identity()
      )
      (unary_shortcut): Identity()
      (act): LeakyReLU(negative_slope=0.2)
    )
    (encoder2_2): KPResidualBlock(
      (unary1): UnaryBlockPackMode(
        (mlp): Linear(in_features=128, out_features=64, bias=True)
        (norm): GroupNormPackMode(8, 64, eps=1e-05, affine=True)
        (act): LeakyReLU(negative_slope=0.2)
      )
      (conv): KPConvBlock(
        (conv): KPConv(kernel_size=15, in_channels=64, out_channels=64, radius=0.75, sigma=0.6, bias=True)
        (norm): GroupNormPackMode(8, 64, eps=1e-05, affine=True)
        (act): LeakyReLU(negative_slope=0.2)
      )
      (unary2): UnaryBlockPackMode(
        (mlp): Linear(in_features=64, out_features=256, bias=True)
        (norm): GroupNormPackMode(32, 256, eps=1e-05, affine=True)
        (act): Identity()
      )
      (unary_shortcut): UnaryBlockPackMode(
        (mlp): Linear(in_features=128, out_features=256, bias=True)
        (norm): GroupNormPackMode(32, 256, eps=1e-05, affine=True)
        (act): Identity()
      )
      (act): LeakyReLU(negative_slope=0.2)
    )
    (encoder2_3): KPResidualBlock(
      (unary1): UnaryBlockPackMode(
        (mlp): Linear(in_features=256, out_features=64, bias=True)
        (norm): GroupNormPackMode(8, 64, eps=1e-05, affine=True)
        (act): LeakyReLU(negative_slope=0.2)
      )
      (conv): KPConvBlock(
        (conv): KPConv(kernel_size=15, in_channels=64, out_channels=64, radius=0.75, sigma=0.6, bias=True)
        (norm): GroupNormPackMode(8, 64, eps=1e-05, affine=True)
        (act): LeakyReLU(negative_slope=0.2)
      )
      (unary2): UnaryBlockPackMode(
        (mlp): Linear(in_features=64, out_features=256, bias=True)
        (norm): GroupNormPackMode(32, 256, eps=1e-05, affine=True)
        (act): Identity()
      )
      (unary_shortcut): Identity()
      (act): LeakyReLU(negative_slope=0.2)
    )
    (encoder3_1): KPResidualBlock(
      (unary1): UnaryBlockPackMode(
        (mlp): Linear(in_features=256, out_features=64, bias=True)
        (norm): GroupNormPackMode(8, 64, eps=1e-05, affine=True)
        (act): LeakyReLU(negative_slope=0.2)
      )
      (conv): KPConvBlock(
        (conv): KPConv(kernel_size=15, in_channels=64, out_channels=64, radius=0.75, sigma=0.6, bias=True)
        (norm): GroupNormPackMode(8, 64, eps=1e-05, affine=True)
        (act): LeakyReLU(negative_slope=0.2)
      )
      (unary2): UnaryBlockPackMode(
        (mlp): Linear(in_features=64, out_features=256, bias=True)
        (norm): GroupNormPackMode(32, 256, eps=1e-05, affine=True)
        (act): Identity()
      )
      (unary_shortcut): Identity()
      (act): LeakyReLU(negative_slope=0.2)
    )
    (encoder3_2): KPResidualBlock(
      (unary1): UnaryBlockPackMode(
        (mlp): Linear(in_features=256, out_features=128, bias=True)
        (norm): GroupNormPackMode(16, 128, eps=1e-05, affine=True)
        (act): LeakyReLU(negative_slope=0.2)
      )
      (conv): KPConvBlock(
        (conv): KPConv(kernel_size=15, in_channels=128, out_channels=128, radius=1.5, sigma=1.2, bias=True)
        (norm): GroupNormPackMode(16, 128, eps=1e-05, affine=True)
        (act): LeakyReLU(negative_slope=0.2)
      )
      (unary2): UnaryBlockPackMode(
        (mlp): Linear(in_features=128, out_features=512, bias=True)
        (norm): GroupNormPackMode(32, 512, eps=1e-05, affine=True)
        (act): Identity()
      )
      (unary_shortcut): UnaryBlockPackMode(
        (mlp): Linear(in_features=256, out_features=512, bias=True)
        (norm): GroupNormPackMode(32, 512, eps=1e-05, affine=True)
        (act): Identity()
      )
      (act): LeakyReLU(negative_slope=0.2)
    )
    (encoder3_3): KPResidualBlock(
      (unary1): UnaryBlockPackMode(
        (mlp): Linear(in_features=512, out_features=128, bias=True)
        (norm): GroupNormPackMode(16, 128, eps=1e-05, affine=True)
        (act): LeakyReLU(negative_slope=0.2)
      )
      (conv): KPConvBlock(
        (conv): KPConv(kernel_size=15, in_channels=128, out_channels=128, radius=1.5, sigma=1.2, bias=True)
        (norm): GroupNormPackMode(16, 128, eps=1e-05, affine=True)
        (act): LeakyReLU(negative_slope=0.2)
      )
      (unary2): UnaryBlockPackMode(
        (mlp): Linear(in_features=128, out_features=512, bias=True)
        (norm): GroupNormPackMode(32, 512, eps=1e-05, affine=True)
        (act): Identity()
      )
      (unary_shortcut): Identity()
      (act): LeakyReLU(negative_slope=0.2)
    )
    (encoder4_1): KPResidualBlock(
      (unary1): UnaryBlockPackMode(
        (mlp): Linear(in_features=512, out_features=128, bias=True)
        (norm): GroupNormPackMode(16, 128, eps=1e-05, affine=True)
        (act): LeakyReLU(negative_slope=0.2)
      )
      (conv): KPConvBlock(
        (conv): KPConv(kernel_size=15, in_channels=128, out_channels=128, radius=1.5, sigma=1.2, bias=True)
        (norm): GroupNormPackMode(16, 128, eps=1e-05, affine=True)
        (act): LeakyReLU(negative_slope=0.2)
      )
      (unary2): UnaryBlockPackMode(
        (mlp): Linear(in_features=128, out_features=512, bias=True)
        (norm): GroupNormPackMode(32, 512, eps=1e-05, affine=True)
        (act): Identity()
      )
      (unary_shortcut): Identity()
      (act): LeakyReLU(negative_slope=0.2)
    )
    (encoder4_2): KPResidualBlock(
      (unary1): UnaryBlockPackMode(
        (mlp): Linear(in_features=512, out_features=256, bias=True)
        (norm): GroupNormPackMode(32, 256, eps=1e-05, affine=True)
        (act): LeakyReLU(negative_slope=0.2)
      )
      (conv): KPConvBlock(
        (conv): KPConv(kernel_size=15, in_channels=256, out_channels=256, radius=3, sigma=2.4, bias=True)
        (norm): GroupNormPackMode(32, 256, eps=1e-05, affine=True)
        (act): LeakyReLU(negative_slope=0.2)
      )
      (unary2): UnaryBlockPackMode(
        (mlp): Linear(in_features=256, out_features=1024, bias=True)
        (norm): GroupNormPackMode(32, 1024, eps=1e-05, affine=True)
        (act): Identity()
      )
      (unary_shortcut): UnaryBlockPackMode(
        (mlp): Linear(in_features=512, out_features=1024, bias=True)
        (norm): GroupNormPackMode(32, 1024, eps=1e-05, affine=True)
        (act): Identity()
      )
      (act): LeakyReLU(negative_slope=0.2)
    )
    (encoder4_3): KPResidualBlock(
      (unary1): UnaryBlockPackMode(
        (mlp): Linear(in_features=1024, out_features=256, bias=True)
        (norm): GroupNormPackMode(32, 256, eps=1e-05, affine=True)
        (act): LeakyReLU(negative_slope=0.2)
      )
      (conv): KPConvBlock(
        (conv): KPConv(kernel_size=15, in_channels=256, out_channels=256, radius=3, sigma=2.4, bias=True)
        (norm): GroupNormPackMode(32, 256, eps=1e-05, affine=True)
        (act): LeakyReLU(negative_slope=0.2)
      )
      (unary2): UnaryBlockPackMode(
        (mlp): Linear(in_features=256, out_features=1024, bias=True)
        (norm): GroupNormPackMode(32, 1024, eps=1e-05, affine=True)
        (act): Identity()
      )
      (unary_shortcut): Identity()
      (act): LeakyReLU(negative_slope=0.2)
    )
  )
  (overlap_pred): OverlapEstimator(
    (img_mlp): Sequential(
      (0): Linear(in_features=512, out_features=512, bias=True)
      (1): LayerNorm((512,), eps=1e-05, elementwise_affine=True)
      (2): ReLU()
    )
    (pcd_mlp): Sequential(
      (0): Linear(in_features=1024, out_features=512, bias=True)
      (1): LayerNorm((512,), eps=1e-05, elementwise_affine=True)
      (2): ReLU()
    )
    (point_mlp): Sequential(
      (0): Linear(in_features=3, out_features=32, bias=True)
      (1): ReLU()
      (2): Linear(in_features=32, out_features=64, bias=True)
      (3): ReLU()
      (4): Linear(in_features=64, out_features=128, bias=True)
      (5): LayerNorm((128,), eps=1e-05, elementwise_affine=True)
      (6): ReLU()
    )
    (overlap_estimator): Sequential(
      (0): Linear(in_features=1152, out_features=512, bias=True)
      (1): ReLU()
      (2): Linear(in_features=512, out_features=256, bias=True)
      (3): ReLU()
      (4): Linear(in_features=256, out_features=128, bias=True)
      (5): ReLU()
      (6): Linear(in_features=128, out_features=64, bias=True)
      (7): ReLU()
      (8): Linear(in_features=64, out_features=32, bias=True)
      (9): ReLU()
      (10): Linear(in_features=32, out_features=1, bias=True)
    )
  )
  (vertex_pred): VertexPred(
    (mlp1): Sequential(
      (0): Linear(in_features=1, out_features=32, bias=True)
      (1): ReLU()
      (2): Linear(in_features=32, out_features=64, bias=True)
      (3): ReLU()
      (4): Linear(in_features=64, out_features=128, bias=True)
      (5): LayerNorm((128,), eps=1e-05, elementwise_affine=True)
      (6): ReLU()
    )
    (mlp2): Sequential(
      (0): Linear(in_features=3, out_features=32, bias=True)
      (1): ReLU()
      (2): Linear(in_features=32, out_features=64, bias=True)
      (3): ReLU()
      (4): Linear(in_features=64, out_features=128, bias=True)
      (5): LayerNorm((128,), eps=1e-05, elementwise_affine=True)
      (6): ReLU()
    )
    (token_mlp): Sequential(
      (0): Linear(in_features=512, out_features=256, bias=True)
      (1): ReLU()
      (2): Linear(in_features=256, out_features=128, bias=True)
      (3): LayerNorm((128,), eps=1e-05, elementwise_affine=True)
      (4): ReLU()
    )
    (feat_mlp): Sequential(
      (0): Linear(in_features=1024, out_features=256, bias=True)
      (1): ReLU()
      (2): Linear(in_features=256, out_features=128, bias=True)
      (3): LayerNorm((128,), eps=1e-05, elementwise_affine=True)
      (4): ReLU()
    )
    (points_mlp1): Sequential(
      (0): Linear(in_features=512, out_features=256, bias=True)
      (1): ReLU()
      (2): Linear(in_features=256, out_features=256, bias=True)
      (3): ReLU()
    )
    (points_mlp2): Sequential(
      (0): Linear(in_features=512, out_features=512, bias=True)
      (1): ReLU()
      (2): Linear(in_features=512, out_features=512, bias=True)
      (3): ReLU()
    )
    (center_estimator): Sequential(
      (0): Linear(in_features=512, out_features=256, bias=True)
      (1): ReLU()
      (2): Linear(in_features=256, out_features=128, bias=True)
      (3): ReLU()
      (4): Linear(in_features=128, out_features=64, bias=True)
      (5): ReLU()
      (6): Linear(in_features=64, out_features=32, bias=True)
      (7): ReLU()
      (8): Linear(in_features=32, out_features=2, bias=True)
    )
    (dir_estimator): Sequential(
      (0): Linear(in_features=512, out_features=256, bias=True)
      (1): ReLU()
      (2): Linear(in_features=256, out_features=128, bias=True)
      (3): ReLU()
      (4): Linear(in_features=128, out_features=64, bias=True)
      (5): ReLU()
      (6): Linear(in_features=64, out_features=32, bias=True)
      (7): ReLU()
      (8): Linear(in_features=32, out_features=2, bias=True)
    )
  )
  (query_embed): Embedding(64, 512)
  (decoder): ModuleList(
    (0): CrossModalFusionModule(
      (img_in_proj): Sequential(
        (0): Linear(in_features=512, out_features=512, bias=True)
        (1): ReLU()
        (2): Linear(in_features=512, out_features=512, bias=True)
        (3): LayerNorm((512,), eps=1e-05, elementwise_affine=True)
      )
      (pcd_in_proj): Sequential(
        (0): Linear(in_features=1024, out_features=512, bias=True)
        (1): ReLU()
        (2): Linear(in_features=512, out_features=512, bias=True)
        (3): LayerNorm((512,), eps=1e-05, elementwise_affine=True)
      )
      (query_out_proj): Sequential(
        (0): Linear(in_features=512, out_features=256, bias=True)
        (1): ReLU()
        (2): Linear(in_features=256, out_features=256, bias=True)
        (3): LayerNorm((256,), eps=1e-05, elementwise_affine=True)
      )
      (self_attention): ModuleList(
        (0-1): 2 x TransformerLayer(
          (attention): AttentionLayer(
            (attention): MultiHeadAttention(
              (q_token_layer): Linear(in_features=512, out_features=512, bias=True)
              (k_token_layer): Linear(in_features=512, out_features=512, bias=True)
              (v_token_layer): Linear(in_features=512, out_features=512, bias=True)
              (dropout): Identity()
            )
            (linear): Linear(in_features=512, out_features=512, bias=True)
            (dropout): Identity()
            (norm): LayerNorm((512,), eps=1e-05, elementwise_affine=True)
          )
          (output): AttentionOutput(
            (expand): Linear(in_features=512, out_features=1024, bias=True)
            (activation): ReLU()
            (squeeze): Linear(in_features=1024, out_features=512, bias=True)
            (dropout): Identity()
            (norm): LayerNorm((512,), eps=1e-05, elementwise_affine=True)
          )
        )
      )
      (cross_attention): ModuleList(
        (0-1): 2 x TransformerLayer(
          (attention): AttentionLayer(
            (attention): MultiHeadAttention(
              (q_token_layer): Linear(in_features=512, out_features=512, bias=True)
              (k_token_layer): Linear(in_features=512, out_features=512, bias=True)
              (v_token_layer): Linear(in_features=512, out_features=512, bias=True)
              (dropout): Identity()
            )
            (linear): Linear(in_features=512, out_features=512, bias=True)
            (dropout): Identity()
            (norm): LayerNorm((512,), eps=1e-05, elementwise_affine=True)
          )
          (output): AttentionOutput(
            (expand): Linear(in_features=512, out_features=1024, bias=True)
            (activation): ReLU()
            (squeeze): Linear(in_features=1024, out_features=512, bias=True)
            (dropout): Identity()
            (norm): LayerNorm((512,), eps=1e-05, elementwise_affine=True)
          )
        )
      )
    )
    (1): CrossModalFusionModule(
      (img_in_proj): Sequential(
        (0): Linear(in_features=256, out_features=256, bias=True)
        (1): ReLU()
        (2): Linear(in_features=256, out_features=256, bias=True)
        (3): LayerNorm((256,), eps=1e-05, elementwise_affine=True)
      )
      (pcd_in_proj): Sequential(
        (0): Linear(in_features=512, out_features=256, bias=True)
        (1): ReLU()
        (2): Linear(in_features=256, out_features=256, bias=True)
        (3): LayerNorm((256,), eps=1e-05, elementwise_affine=True)
      )
      (query_out_proj): Sequential(
        (0): Linear(in_features=256, out_features=128, bias=True)
        (1): ReLU()
        (2): Linear(in_features=128, out_features=128, bias=True)
        (3): LayerNorm((128,), eps=1e-05, elementwise_affine=True)
      )
      (self_attention): ModuleList(
        (0-1): 2 x TransformerLayer(
          (attention): AttentionLayer(
            (attention): MultiHeadAttention(
              (q_token_layer): Linear(in_features=256, out_features=256, bias=True)
              (k_token_layer): Linear(in_features=256, out_features=256, bias=True)
              (v_token_layer): Linear(in_features=256, out_features=256, bias=True)
              (dropout): Identity()
            )
            (linear): Linear(in_features=256, out_features=256, bias=True)
            (dropout): Identity()
            (norm): LayerNorm((256,), eps=1e-05, elementwise_affine=True)
          )
          (output): AttentionOutput(
            (expand): Linear(in_features=256, out_features=512, bias=True)
            (activation): ReLU()
            (squeeze): Linear(in_features=512, out_features=256, bias=True)
            (dropout): Identity()
            (norm): LayerNorm((256,), eps=1e-05, elementwise_affine=True)
          )
        )
      )
      (cross_attention): ModuleList(
        (0-1): 2 x TransformerLayer(
          (attention): AttentionLayer(
            (attention): MultiHeadAttention(
              (q_token_layer): Linear(in_features=256, out_features=256, bias=True)
              (k_token_layer): Linear(in_features=256, out_features=256, bias=True)
              (v_token_layer): Linear(in_features=256, out_features=256, bias=True)
              (dropout): Identity()
            )
            (linear): Linear(in_features=256, out_features=256, bias=True)
            (dropout): Identity()
            (norm): LayerNorm((256,), eps=1e-05, elementwise_affine=True)
          )
          (output): AttentionOutput(
            (expand): Linear(in_features=256, out_features=512, bias=True)
            (activation): ReLU()
            (squeeze): Linear(in_features=512, out_features=256, bias=True)
            (dropout): Identity()
            (norm): LayerNorm((256,), eps=1e-05, elementwise_affine=True)
          )
        )
      )
    )
    (2): CrossModalFusionModule(
      (img_in_proj): Sequential(
        (0): Linear(in_features=128, out_features=128, bias=True)
        (1): ReLU()
        (2): Linear(in_features=128, out_features=128, bias=True)
        (3): LayerNorm((128,), eps=1e-05, elementwise_affine=True)
      )
      (pcd_in_proj): Sequential(
        (0): Linear(in_features=256, out_features=128, bias=True)
        (1): ReLU()
        (2): Linear(in_features=128, out_features=128, bias=True)
        (3): LayerNorm((128,), eps=1e-05, elementwise_affine=True)
      )
      (query_out_proj): Sequential(
        (0): Linear(in_features=128, out_features=128, bias=True)
        (1): ReLU()
        (2): Linear(in_features=128, out_features=128, bias=True)
        (3): LayerNorm((128,), eps=1e-05, elementwise_affine=True)
      )
      (self_attention): ModuleList(
        (0-1): 2 x TransformerLayer(
          (attention): AttentionLayer(
            (attention): MultiHeadAttention(
              (q_token_layer): Linear(in_features=128, out_features=128, bias=True)
              (k_token_layer): Linear(in_features=128, out_features=128, bias=True)
              (v_token_layer): Linear(in_features=128, out_features=128, bias=True)
              (dropout): Identity()
            )
            (linear): Linear(in_features=128, out_features=128, bias=True)
            (dropout): Identity()
            (norm): LayerNorm((128,), eps=1e-05, elementwise_affine=True)
          )
          (output): AttentionOutput(
            (expand): Linear(in_features=128, out_features=256, bias=True)
            (activation): ReLU()
            (squeeze): Linear(in_features=256, out_features=128, bias=True)
            (dropout): Identity()
            (norm): LayerNorm((128,), eps=1e-05, elementwise_affine=True)
          )
        )
      )
      (cross_attention): ModuleList(
        (0-1): 2 x TransformerLayer(
          (attention): AttentionLayer(
            (attention): MultiHeadAttention(
              (q_token_layer): Linear(in_features=128, out_features=128, bias=True)
              (k_token_layer): Linear(in_features=128, out_features=128, bias=True)
              (v_token_layer): Linear(in_features=128, out_features=128, bias=True)
              (dropout): Identity()
            )
            (linear): Linear(in_features=128, out_features=128, bias=True)
            (dropout): Identity()
            (norm): LayerNorm((128,), eps=1e-05, elementwise_affine=True)
          )
          (output): AttentionOutput(
            (expand): Linear(in_features=128, out_features=256, bias=True)
            (activation): ReLU()
            (squeeze): Linear(in_features=256, out_features=128, bias=True)
            (dropout): Identity()
            (norm): LayerNorm((128,), eps=1e-05, elementwise_affine=True)
          )
        )
      )
    )
    (3): CrossModalFusionModule(
      (img_in_proj): Sequential(
        (0): Linear(in_features=128, out_features=128, bias=True)
        (1): ReLU()
        (2): Linear(in_features=128, out_features=128, bias=True)
        (3): LayerNorm((128,), eps=1e-05, elementwise_affine=True)
      )
      (pcd_in_proj): Sequential(
        (0): Linear(in_features=128, out_features=128, bias=True)
        (1): ReLU()
        (2): Linear(in_features=128, out_features=128, bias=True)
        (3): LayerNorm((128,), eps=1e-05, elementwise_affine=True)
      )
      (query_out_proj): Sequential(
        (0): Linear(in_features=128, out_features=128, bias=True)
        (1): ReLU()
        (2): Linear(in_features=128, out_features=128, bias=True)
        (3): LayerNorm((128,), eps=1e-05, elementwise_affine=True)
      )
      (self_attention): ModuleList(
        (0-1): 2 x TransformerLayer(
          (attention): AttentionLayer(
            (attention): MultiHeadAttention(
              (q_token_layer): Linear(in_features=128, out_features=128, bias=True)
              (k_token_layer): Linear(in_features=128, out_features=128, bias=True)
              (v_token_layer): Linear(in_features=128, out_features=128, bias=True)
              (dropout): Identity()
            )
            (linear): Linear(in_features=128, out_features=128, bias=True)
            (dropout): Identity()
            (norm): LayerNorm((128,), eps=1e-05, elementwise_affine=True)
          )
          (output): AttentionOutput(
            (expand): Linear(in_features=128, out_features=256, bias=True)
            (activation): ReLU()
            (squeeze): Linear(in_features=256, out_features=128, bias=True)
            (dropout): Identity()
            (norm): LayerNorm((128,), eps=1e-05, elementwise_affine=True)
          )
        )
      )
      (cross_attention): ModuleList(
        (0-1): 2 x TransformerLayer(
          (attention): AttentionLayer(
            (attention): MultiHeadAttention(
              (q_token_layer): Linear(in_features=128, out_features=128, bias=True)
              (k_token_layer): Linear(in_features=128, out_features=128, bias=True)
              (v_token_layer): Linear(in_features=128, out_features=128, bias=True)
              (dropout): Identity()
            )
            (linear): Linear(in_features=128, out_features=128, bias=True)
            (dropout): Identity()
            (norm): LayerNorm((128,), eps=1e-05, elementwise_affine=True)
          )
          (output): AttentionOutput(
            (expand): Linear(in_features=128, out_features=256, bias=True)
            (activation): ReLU()
            (squeeze): Linear(in_features=256, out_features=128, bias=True)
            (dropout): Identity()
            (norm): LayerNorm((128,), eps=1e-05, elementwise_affine=True)
          )
        )
      )
    )
  )
  (fusion_block): ModuleList(
    (0): FeatureFusion(
      (mlp1): Sequential(
        (0): Linear(in_features=3, out_features=32, bias=True)
        (1): ReLU()
        (2): Linear(in_features=32, out_features=64, bias=True)
        (3): ReLU()
        (4): Linear(in_features=64, out_features=128, bias=True)
        (5): LayerNorm((128,), eps=1e-05, elementwise_affine=True)
        (6): ReLU()
      )
      (mlp2): Sequential(
        (0): Linear(in_features=2, out_features=32, bias=True)
        (1): ReLU()
        (2): Linear(in_features=32, out_features=64, bias=True)
        (3): ReLU()
        (4): Linear(in_features=64, out_features=128, bias=True)
        (5): LayerNorm((128,), eps=1e-05, elementwise_affine=True)
        (6): ReLU()
      )
      (pose_mlp1): Sequential(
        (0): Linear(in_features=512, out_features=256, bias=True)
        (1): ReLU()
        (2): Linear(in_features=256, out_features=256, bias=True)
        (3): ReLU()
      )
      (pose_mlp2): Sequential(
        (0): Linear(in_features=512, out_features=512, bias=True)
        (1): ReLU()
        (2): Linear(in_features=512, out_features=512, bias=True)
        (3): ReLU()
      )
      (rotation_estimator): Sequential(
        (0): Linear(in_features=512, out_features=256, bias=True)
        (1): ReLU()
        (2): Linear(in_features=256, out_features=128, bias=True)
        (3): ReLU()
        (4): Linear(in_features=128, out_features=64, bias=True)
        (5): ReLU()
        (6): Linear(in_features=64, out_features=32, bias=True)
        (7): ReLU()
        (8): Linear(in_features=32, out_features=2, bias=True)
      )
      (translation_estimator): Sequential(
        (0): Linear(in_features=512, out_features=256, bias=True)
        (1): ReLU()
        (2): Linear(in_features=256, out_features=128, bias=True)
        (3): ReLU()
        (4): Linear(in_features=128, out_features=64, bias=True)
        (5): ReLU()
        (6): Linear(in_features=64, out_features=32, bias=True)
        (7): ReLU()
        (8): Linear(in_features=32, out_features=2, bias=True)
      )
      (img_query_proj): Sequential(
        (0): Linear(in_features=512, out_features=256, bias=True)
        (1): ReLU()
        (2): Linear(in_features=256, out_features=128, bias=True)
        (3): LayerNorm((128,), eps=1e-05, elementwise_affine=True)
        (4): ReLU()
      )
      (pcd_query_proj): Sequential(
        (0): Linear(in_features=512, out_features=256, bias=True)
        (1): ReLU()
        (2): Linear(in_features=256, out_features=128, bias=True)
        (3): LayerNorm((128,), eps=1e-05, elementwise_affine=True)
        (4): ReLU()
      )
    )
    (1): FeatureFusion(
      (mlp1): Sequential(
        (0): Linear(in_features=3, out_features=32, bias=True)
        (1): ReLU()
        (2): Linear(in_features=32, out_features=64, bias=True)
        (3): ReLU()
        (4): Linear(in_features=64, out_features=128, bias=True)
        (5): LayerNorm((128,), eps=1e-05, elementwise_affine=True)
        (6): ReLU()
      )
      (mlp2): Sequential(
        (0): Linear(in_features=2, out_features=32, bias=True)
        (1): ReLU()
        (2): Linear(in_features=32, out_features=64, bias=True)
        (3): ReLU()
        (4): Linear(in_features=64, out_features=128, bias=True)
        (5): LayerNorm((128,), eps=1e-05, elementwise_affine=True)
        (6): ReLU()
      )
      (pose_mlp1): Sequential(
        (0): Linear(in_features=512, out_features=256, bias=True)
        (1): ReLU()
        (2): Linear(in_features=256, out_features=256, bias=True)
        (3): ReLU()
      )
      (pose_mlp2): Sequential(
        (0): Linear(in_features=512, out_features=512, bias=True)
        (1): ReLU()
        (2): Linear(in_features=512, out_features=512, bias=True)
        (3): ReLU()
      )
      (rotation_estimator): Sequential(
        (0): Linear(in_features=512, out_features=256, bias=True)
        (1): ReLU()
        (2): Linear(in_features=256, out_features=128, bias=True)
        (3): ReLU()
        (4): Linear(in_features=128, out_features=64, bias=True)
        (5): ReLU()
        (6): Linear(in_features=64, out_features=32, bias=True)
        (7): ReLU()
        (8): Linear(in_features=32, out_features=2, bias=True)
      )
      (translation_estimator): Sequential(
        (0): Linear(in_features=512, out_features=256, bias=True)
        (1): ReLU()
        (2): Linear(in_features=256, out_features=128, bias=True)
        (3): ReLU()
        (4): Linear(in_features=128, out_features=64, bias=True)
        (5): ReLU()
        (6): Linear(in_features=64, out_features=32, bias=True)
        (7): ReLU()
        (8): Linear(in_features=32, out_features=2, bias=True)
      )
      (img_query_proj): Sequential(
        (0): Linear(in_features=256, out_features=128, bias=True)
        (1): ReLU()
        (2): Linear(in_features=128, out_features=128, bias=True)
        (3): LayerNorm((128,), eps=1e-05, elementwise_affine=True)
        (4): ReLU()
      )
      (pcd_query_proj): Sequential(
        (0): Linear(in_features=256, out_features=128, bias=True)
        (1): ReLU()
        (2): Linear(in_features=128, out_features=128, bias=True)
        (3): LayerNorm((128,), eps=1e-05, elementwise_affine=True)
        (4): ReLU()
      )
    )
    (2-3): 2 x FeatureFusion(
      (mlp1): Sequential(
        (0): Linear(in_features=3, out_features=32, bias=True)
        (1): ReLU()
        (2): Linear(in_features=32, out_features=64, bias=True)
        (3): ReLU()
        (4): Linear(in_features=64, out_features=128, bias=True)
        (5): LayerNorm((128,), eps=1e-05, elementwise_affine=True)
        (6): ReLU()
      )
      (mlp2): Sequential(
        (0): Linear(in_features=2, out_features=32, bias=True)
        (1): ReLU()
        (2): Linear(in_features=32, out_features=64, bias=True)
        (3): ReLU()
        (4): Linear(in_features=64, out_features=128, bias=True)
        (5): LayerNorm((128,), eps=1e-05, elementwise_affine=True)
        (6): ReLU()
      )
      (pose_mlp1): Sequential(
        (0): Linear(in_features=512, out_features=256, bias=True)
        (1): ReLU()
        (2): Linear(in_features=256, out_features=256, bias=True)
        (3): ReLU()
      )
      (pose_mlp2): Sequential(
        (0): Linear(in_features=512, out_features=512, bias=True)
        (1): ReLU()
        (2): Linear(in_features=512, out_features=512, bias=True)
        (3): ReLU()
      )
      (rotation_estimator): Sequential(
        (0): Linear(in_features=512, out_features=256, bias=True)
        (1): ReLU()
        (2): Linear(in_features=256, out_features=128, bias=True)
        (3): ReLU()
        (4): Linear(in_features=128, out_features=64, bias=True)
        (5): ReLU()
        (6): Linear(in_features=64, out_features=32, bias=True)
        (7): ReLU()
        (8): Linear(in_features=32, out_features=2, bias=True)
      )
      (translation_estimator): Sequential(
        (0): Linear(in_features=512, out_features=256, bias=True)
        (1): ReLU()
        (2): Linear(in_features=256, out_features=128, bias=True)
        (3): ReLU()
        (4): Linear(in_features=128, out_features=64, bias=True)
        (5): ReLU()
        (6): Linear(in_features=64, out_features=32, bias=True)
        (7): ReLU()
        (8): Linear(in_features=32, out_features=2, bias=True)
      )
      (img_query_proj): Sequential(
        (0): Linear(in_features=128, out_features=128, bias=True)
        (1): ReLU()
        (2): Linear(in_features=128, out_features=128, bias=True)
        (3): LayerNorm((128,), eps=1e-05, elementwise_affine=True)
        (4): ReLU()
      )
      (pcd_query_proj): Sequential(
        (0): Linear(in_features=128, out_features=128, bias=True)
        (1): ReLU()
        (2): Linear(in_features=128, out_features=128, bias=True)
        (3): LayerNorm((128,), eps=1e-05, elementwise_affine=True)
        (4): ReLU()
      )
    )
  )
)
